…
[32m[2025-11-19 12:33:42]    INFO >> è®­ç»ƒæ—¥å¿—å°†ä¿å­˜åˆ°: /home/zhaojunzhang/workspace/type_pred/naturalcc/run/type_prediction/typilus/experiments/lr_1e-3/logs (train_enhanced.py:368, single_main())[0m
[32m[2025-11-19 12:33:42]    INFO >> [nodes] dictionary: 9999 types (typilus.py:102, setup_task())[0m
[32m[2025-11-19 12:33:42]    INFO >> [edges] dictionary: 0 types (typilus.py:102, setup_task())[0m
[32m[2025-11-19 12:33:42]    INFO >> [supernodes.annotation] dictionary: 99 types (typilus.py:106, setup_task())[0m
[32m[2025-11-19 12:33:50]    INFO >> Typilus(
  (encoder): GGNNEncoder(
    (node_embedding): Embedding(9999, 64, padding_idx=0)
    (node_layer): Sequential(
      (0): Dropout(p=0.1, inplace=False)
      (1): Linear(in_features=64, out_features=64, bias=False)
      (2): Dropout(p=0.1, inplace=False)
    )
    (ggnns): ModuleList(
      (0): GatedGNN(
        (edge_weights): ModuleDict(
          (CHILD): Linear(in_features=64, out_features=64, bias=False)
          (OCCURRENCE_OF): Linear(in_features=64, out_features=64, bias=False)
          (NEXT): Linear(in_features=64, out_features=64, bias=False)
          (SUBTOKEN_OF): Linear(in_features=64, out_features=64, bias=False)
          (COMPUTED_FROM): Linear(in_features=64, out_features=64, bias=False)
          (LAST_LEXICAL_USE): Linear(in_features=64, out_features=64, bias=False)
          (NEXT_USE): Linear(in_features=64, out_features=64, bias=False)
          (RETURNS_TO): Linear(in_features=64, out_features=64, bias=False)
          (_CHILD): Linear(in_features=64, out_features=64, bias=False)
          (_OCCURRENCE_OF): Linear(in_features=64, out_features=64, bias=False)
          (_NEXT): Linear(in_features=64, out_features=64, bias=False)
          (_SUBTOKEN_OF): Linear(in_features=64, out_features=64, bias=False)
          (_COMPUTED_FROM): Linear(in_features=64, out_features=64, bias=False)
          (_LAST_LEXICAL_USE): Linear(in_features=64, out_features=64, bias=False)
          (_NEXT_USE): Linear(in_features=64, out_features=64, bias=False)
          (_RETURNS_TO): Linear(in_features=64, out_features=64, bias=False)
        )
        (rnn_cell): GRUCell(64, 64)
      )
      (1): GatedGNN(
        (edge_weights): ModuleDict(
          (CHILD): Linear(in_features=64, out_features=64, bias=False)
          (OCCURRENCE_OF): Linear(in_features=64, out_features=64, bias=False)
          (NEXT): Linear(in_features=64, out_features=64, bias=False)
          (SUBTOKEN_OF): Linear(in_features=64, out_features=64, bias=False)
          (COMPUTED_FROM): Linear(in_features=64, out_features=64, bias=False)
          (LAST_LEXICAL_USE): Linear(in_features=64, out_features=64, bias=False)
          (NEXT_USE): Linear(in_features=64, out_features=64, bias=False)
          (RETURNS_TO): Linear(in_features=64, out_features=64, bias=False)
          (_CHILD): Linear(in_features=64, out_features=64, bias=False)
          (_OCCURRENCE_OF): Linear(in_features=64, out_features=64, bias=False)
          (_NEXT): Linear(in_features=64, out_features=64, bias=False)
          (_SUBTOKEN_OF): Linear(in_features=64, out_features=64, bias=False)
          (_COMPUTED_FROM): Linear(in_features=64, out_features=64, bias=False)
          (_LAST_LEXICAL_USE): Linear(in_features=64, out_features=64, bias=False)
          (_NEXT_USE): Linear(in_features=64, out_features=64, bias=False)
          (_RETURNS_TO): Linear(in_features=64, out_features=64, bias=False)
        )
        (rnn_cell): GRUCell(128, 64)
      )
    )
  )
  (decoder): DenseDecoder(
    (cls_layers): Sequential(
      (0): Linear(in_features=64, out_features=64, bias=False)
      (1): Dropout(p=0.1, inplace=False)
      (2): Linear(in_features=64, out_features=99, bias=True)
    )
  )
) (train_enhanced.py:375, single_main())[0m
[32m[2025-11-19 12:33:50]    INFO >> æ¨¡åž‹: typilus, æŸå¤±å‡½æ•°: TypilusCriterion (train_enhanced.py:376, single_main())[0m
[32m[2025-11-19 12:33:50]    INFO >> æ¨¡åž‹å‚æ•°: 847843 (å¯è®­ç»ƒ: 847843) (train_enhanced.py:377, single_main())[0m
[32m[2025-11-19 12:33:50]    INFO >> ***********************CUDA enviroments for all 1 workers*********************** (utils.py:530, pretty_print_cuda_env_list())[0m
…
