…
[32m[2025-11-21 00:08:02]    INFO >> è®­ç»ƒæ—¥å¿—å°†ä¿å­˜åˆ°: /home/zhaojunzhang/workspace/type_pred/naturalcc/run/type_prediction/typilus/experiments/embed_32/logs (train_enhanced.py:561, single_main())[0m
[32m[2025-11-21 00:08:02]    INFO >> [nodes] dictionary: 9999 types (typilus.py:102, setup_task())[0m
[32m[2025-11-21 00:08:02]    INFO >> [edges] dictionary: 0 types (typilus.py:102, setup_task())[0m
[32m[2025-11-21 00:08:02]    INFO >> [supernodes.annotation] dictionary: 99 types (typilus.py:106, setup_task())[0m
[32m[2025-11-21 00:08:13]    INFO >> Typilus(
  (encoder): GGNNEncoder(
    (node_embedding): Embedding(9999, 32, padding_idx=0)
    (node_layer): Sequential(
      (0): Dropout(p=0.1, inplace=False)
      (1): Linear(in_features=32, out_features=32, bias=False)
      (2): Dropout(p=0.1, inplace=False)
    )
    (ggnns): ModuleList(
      (0): GatedGNN(
        (edge_weights): ModuleDict(
          (CHILD): Linear(in_features=32, out_features=32, bias=False)
          (OCCURRENCE_OF): Linear(in_features=32, out_features=32, bias=False)
          (NEXT): Linear(in_features=32, out_features=32, bias=False)
          (SUBTOKEN_OF): Linear(in_features=32, out_features=32, bias=False)
          (COMPUTED_FROM): Linear(in_features=32, out_features=32, bias=False)
          (LAST_LEXICAL_USE): Linear(in_features=32, out_features=32, bias=False)
          (NEXT_USE): Linear(in_features=32, out_features=32, bias=False)
          (RETURNS_TO): Linear(in_features=32, out_features=32, bias=False)
          (_CHILD): Linear(in_features=32, out_features=32, bias=False)
          (_OCCURRENCE_OF): Linear(in_features=32, out_features=32, bias=False)
          (_NEXT): Linear(in_features=32, out_features=32, bias=False)
          (_SUBTOKEN_OF): Linear(in_features=32, out_features=32, bias=False)
          (_COMPUTED_FROM): Linear(in_features=32, out_features=32, bias=False)
          (_LAST_LEXICAL_USE): Linear(in_features=32, out_features=32, bias=False)
          (_NEXT_USE): Linear(in_features=32, out_features=32, bias=False)
          (_RETURNS_TO): Linear(in_features=32, out_features=32, bias=False)
        )
        (rnn_cell): GRUCell(32, 32)
      )
      (1): GatedGNN(
        (edge_weights): ModuleDict(
          (CHILD): Linear(in_features=32, out_features=32, bias=False)
          (OCCURRENCE_OF): Linear(in_features=32, out_features=32, bias=False)
          (NEXT): Linear(in_features=32, out_features=32, bias=False)
          (SUBTOKEN_OF): Linear(in_features=32, out_features=32, bias=False)
          (COMPUTED_FROM): Linear(in_features=32, out_features=32, bias=False)
          (LAST_LEXICAL_USE): Linear(in_features=32, out_features=32, bias=False)
          (NEXT_USE): Linear(in_features=32, out_features=32, bias=False)
          (RETURNS_TO): Linear(in_features=32, out_features=32, bias=False)
          (_CHILD): Linear(in_features=32, out_features=32, bias=False)
          (_OCCURRENCE_OF): Linear(in_features=32, out_features=32, bias=False)
          (_NEXT): Linear(in_features=32, out_features=32, bias=False)
          (_SUBTOKEN_OF): Linear(in_features=32, out_features=32, bias=False)
          (_COMPUTED_FROM): Linear(in_features=32, out_features=32, bias=False)
          (_LAST_LEXICAL_USE): Linear(in_features=32, out_features=32, bias=False)
          (_NEXT_USE): Linear(in_features=32, out_features=32, bias=False)
          (_RETURNS_TO): Linear(in_features=32, out_features=32, bias=False)
        )
        (rnn_cell): GRUCell(64, 32)
      )
    )
  )
  (decoder): DenseDecoder(
    (cls_layers): Sequential(
      (0): Linear(in_features=32, out_features=32, bias=False)
      (1): Dropout(p=0.1, inplace=False)
      (2): Linear(in_features=32, out_features=99, bias=True)
    )
  )
) (train_enhanced.py:568, single_main())[0m
[32m[2025-11-21 00:08:13]    INFO >> æ¨¡åž‹: typilus, æŸå¤±å‡½æ•°: TypilusCriterion (train_enhanced.py:569, single_main())[0m
[32m[2025-11-21 00:08:13]    INFO >> æ¨¡åž‹å‚æ•°: 373795 (å¯è®­ç»ƒ: 373795) (train_enhanced.py:570, single_main())[0m
[32m[2025-11-21 00:08:13]    INFO >> ***********************CUDA enviroments for all 1 workers*********************** (utils.py:530, pretty_print_cuda_env_list())[0m
…
[32m[2025-11-21 00:55:12]    INFO >> è®­ç»ƒæ—¥å¿—å°†ä¿å­˜åˆ°: /home/zhaojunzhang/workspace/type_pred/naturalcc/run/type_prediction/typilus/experiments/embed_96/logs (train_enhanced.py:561, single_main())[0m
[32m[2025-11-21 00:55:12]    INFO >> [nodes] dictionary: 9999 types (typilus.py:102, setup_task())[0m
[32m[2025-11-21 00:55:12]    INFO >> [edges] dictionary: 0 types (typilus.py:102, setup_task())[0m
[32m[2025-11-21 00:55:12]    INFO >> [supernodes.annotation] dictionary: 99 types (typilus.py:106, setup_task())[0m
[32m[2025-11-21 00:55:23]    INFO >> Typilus(
  (encoder): GGNNEncoder(
    (node_embedding): Embedding(9999, 96, padding_idx=0)
    (node_layer): Sequential(
      (0): Dropout(p=0.1, inplace=False)
      (1): Linear(in_features=96, out_features=96, bias=False)
      (2): Dropout(p=0.1, inplace=False)
    )
    (ggnns): ModuleList(
      (0): GatedGNN(
        (edge_weights): ModuleDict(
          (CHILD): Linear(in_features=96, out_features=96, bias=False)
          (OCCURRENCE_OF): Linear(in_features=96, out_features=96, bias=False)
          (NEXT): Linear(in_features=96, out_features=96, bias=False)
          (SUBTOKEN_OF): Linear(in_features=96, out_features=96, bias=False)
          (COMPUTED_FROM): Linear(in_features=96, out_features=96, bias=False)
          (LAST_LEXICAL_USE): Linear(in_features=96, out_features=96, bias=False)
          (NEXT_USE): Linear(in_features=96, out_features=96, bias=False)
          (RETURNS_TO): Linear(in_features=96, out_features=96, bias=False)
          (_CHILD): Linear(in_features=96, out_features=96, bias=False)
          (_OCCURRENCE_OF): Linear(in_features=96, out_features=96, bias=False)
          (_NEXT): Linear(in_features=96, out_features=96, bias=False)
          (_SUBTOKEN_OF): Linear(in_features=96, out_features=96, bias=False)
          (_COMPUTED_FROM): Linear(in_features=96, out_features=96, bias=False)
          (_LAST_LEXICAL_USE): Linear(in_features=96, out_features=96, bias=False)
          (_NEXT_USE): Linear(in_features=96, out_features=96, bias=False)
          (_RETURNS_TO): Linear(in_features=96, out_features=96, bias=False)
        )
        (rnn_cell): GRUCell(96, 96)
      )
      (1): GatedGNN(
        (edge_weights): ModuleDict(
          (CHILD): Linear(in_features=96, out_features=96, bias=False)
          (OCCURRENCE_OF): Linear(in_features=96, out_features=96, bias=False)
          (NEXT): Linear(in_features=96, out_features=96, bias=False)
          (SUBTOKEN_OF): Linear(in_features=96, out_features=96, bias=False)
          (COMPUTED_FROM): Linear(in_features=96, out_features=96, bias=False)
          (LAST_LEXICAL_USE): Linear(in_features=96, out_features=96, bias=False)
          (NEXT_USE): Linear(in_features=96, out_features=96, bias=False)
          (RETURNS_TO): Linear(in_features=96, out_features=96, bias=False)
          (_CHILD): Linear(in_features=96, out_features=96, bias=False)
          (_OCCURRENCE_OF): Linear(in_features=96, out_features=96, bias=False)
          (_NEXT): Linear(in_features=96, out_features=96, bias=False)
          (_SUBTOKEN_OF): Linear(in_features=96, out_features=96, bias=False)
          (_COMPUTED_FROM): Linear(in_features=96, out_features=96, bias=False)
          (_LAST_LEXICAL_USE): Linear(in_features=96, out_features=96, bias=False)
          (_NEXT_USE): Linear(in_features=96, out_features=96, bias=False)
          (_RETURNS_TO): Linear(in_features=96, out_features=96, bias=False)
        )
        (rnn_cell): GRUCell(192, 96)
      )
    )
  )
  (decoder): DenseDecoder(
    (cls_layers): Sequential(
      (0): Linear(in_features=96, out_features=96, bias=False)
      (1): Dropout(p=0.1, inplace=False)
      (2): Linear(in_features=96, out_features=99, bias=True)
    )
  )
) (train_enhanced.py:568, single_main())[0m
[32m[2025-11-21 00:55:23]    INFO >> æ¨¡åž‹: typilus, æŸå¤±å‡½æ•°: TypilusCriterion (train_enhanced.py:569, single_main())[0m
[32m[2025-11-21 00:55:23]    INFO >> æ¨¡åž‹å‚æ•°: 1422243 (å¯è®­ç»ƒ: 1422243) (train_enhanced.py:570, single_main())[0m
[32m[2025-11-21 00:55:23]    INFO >> ***********************CUDA enviroments for all 1 workers*********************** (utils.py:530, pretty_print_cuda_env_list())[0m
…
[32m[2025-11-21 02:04:54]    INFO >> è®­ç»ƒæ—¥å¿—å°†ä¿å­˜åˆ°: /home/zhaojunzhang/workspace/type_pred/naturalcc/run/type_prediction/typilus/experiments/embed_128/logs (train_enhanced.py:561, single_main())[0m
[32m[2025-11-21 02:04:54]    INFO >> [nodes] dictionary: 9999 types (typilus.py:102, setup_task())[0m
[32m[2025-11-21 02:04:54]    INFO >> [edges] dictionary: 0 types (typilus.py:102, setup_task())[0m
[32m[2025-11-21 02:04:54]    INFO >> [supernodes.annotation] dictionary: 99 types (typilus.py:106, setup_task())[0m
[32m[2025-11-21 02:05:04]    INFO >> Typilus(
  (encoder): GGNNEncoder(
    (node_embedding): Embedding(9999, 128, padding_idx=0)
    (node_layer): Sequential(
      (0): Dropout(p=0.1, inplace=False)
      (1): Linear(in_features=128, out_features=128, bias=False)
      (2): Dropout(p=0.1, inplace=False)
    )
    (ggnns): ModuleList(
      (0): GatedGNN(
        (edge_weights): ModuleDict(
          (CHILD): Linear(in_features=128, out_features=128, bias=False)
          (OCCURRENCE_OF): Linear(in_features=128, out_features=128, bias=False)
          (NEXT): Linear(in_features=128, out_features=128, bias=False)
          (SUBTOKEN_OF): Linear(in_features=128, out_features=128, bias=False)
          (COMPUTED_FROM): Linear(in_features=128, out_features=128, bias=False)
          (LAST_LEXICAL_USE): Linear(in_features=128, out_features=128, bias=False)
          (NEXT_USE): Linear(in_features=128, out_features=128, bias=False)
          (RETURNS_TO): Linear(in_features=128, out_features=128, bias=False)
          (_CHILD): Linear(in_features=128, out_features=128, bias=False)
          (_OCCURRENCE_OF): Linear(in_features=128, out_features=128, bias=False)
          (_NEXT): Linear(in_features=128, out_features=128, bias=False)
          (_SUBTOKEN_OF): Linear(in_features=128, out_features=128, bias=False)
          (_COMPUTED_FROM): Linear(in_features=128, out_features=128, bias=False)
          (_LAST_LEXICAL_USE): Linear(in_features=128, out_features=128, bias=False)
          (_NEXT_USE): Linear(in_features=128, out_features=128, bias=False)
          (_RETURNS_TO): Linear(in_features=128, out_features=128, bias=False)
        )
        (rnn_cell): GRUCell(128, 128)
      )
      (1): GatedGNN(
        (edge_weights): ModuleDict(
          (CHILD): Linear(in_features=128, out_features=128, bias=False)
          (OCCURRENCE_OF): Linear(in_features=128, out_features=128, bias=False)
          (NEXT): Linear(in_features=128, out_features=128, bias=False)
          (SUBTOKEN_OF): Linear(in_features=128, out_features=128, bias=False)
          (COMPUTED_FROM): Linear(in_features=128, out_features=128, bias=False)
          (LAST_LEXICAL_USE): Linear(in_features=128, out_features=128, bias=False)
          (NEXT_USE): Linear(in_features=128, out_features=128, bias=False)
          (RETURNS_TO): Linear(in_features=128, out_features=128, bias=False)
          (_CHILD): Linear(in_features=128, out_features=128, bias=False)
          (_OCCURRENCE_OF): Linear(in_features=128, out_features=128, bias=False)
          (_NEXT): Linear(in_features=128, out_features=128, bias=False)
          (_SUBTOKEN_OF): Linear(in_features=128, out_features=128, bias=False)
          (_COMPUTED_FROM): Linear(in_features=128, out_features=128, bias=False)
          (_LAST_LEXICAL_USE): Linear(in_features=128, out_features=128, bias=False)
          (_NEXT_USE): Linear(in_features=128, out_features=128, bias=False)
          (_RETURNS_TO): Linear(in_features=128, out_features=128, bias=False)
        )
        (rnn_cell): GRUCell(256, 128)
      )
    )
  )
  (decoder): DenseDecoder(
    (cls_layers): Sequential(
      (0): Linear(in_features=128, out_features=128, bias=False)
      (1): Dropout(p=0.1, inplace=False)
      (2): Linear(in_features=128, out_features=99, bias=True)
    )
  )
) (train_enhanced.py:568, single_main())[0m
[32m[2025-11-21 02:05:04]    INFO >> æ¨¡åž‹: typilus, æŸå¤±å‡½æ•°: TypilusCriterion (train_enhanced.py:569, single_main())[0m
[32m[2025-11-21 02:05:04]    INFO >> æ¨¡åž‹å‚æ•°: 2096995 (å¯è®­ç»ƒ: 2096995) (train_enhanced.py:570, single_main())[0m
[32m[2025-11-21 02:05:04]    INFO >> ***********************CUDA enviroments for all 1 workers*********************** (utils.py:530, pretty_print_cuda_env_list())[0m
…
[32m[2025-11-21 06:31:32]    INFO >> è®­ç»ƒæ—¥å¿—å°†ä¿å­˜åˆ°: /home/zhaojunzhang/workspace/type_pred/naturalcc/run/type_prediction/typilus/experiments/layers_1/logs (train_enhanced.py:561, single_main())[0m
[32m[2025-11-21 06:31:32]    INFO >> [nodes] dictionary: 9999 types (typilus.py:102, setup_task())[0m
[32m[2025-11-21 06:31:32]    INFO >> [edges] dictionary: 0 types (typilus.py:102, setup_task())[0m
[32m[2025-11-21 06:31:32]    INFO >> [supernodes.annotation] dictionary: 99 types (typilus.py:106, setup_task())[0m
[32m[2025-11-21 06:31:42]    INFO >> Typilus(
  (encoder): GGNNEncoder(
    (node_embedding): Embedding(9999, 64, padding_idx=0)
    (node_layer): Sequential(
      (0): Dropout(p=0.1, inplace=False)
      (1): Linear(in_features=64, out_features=64, bias=False)
      (2): Dropout(p=0.1, inplace=False)
    )
    (ggnns): ModuleList(
      (0): GatedGNN(
        (edge_weights): ModuleDict(
          (CHILD): Linear(in_features=64, out_features=64, bias=False)
          (OCCURRENCE_OF): Linear(in_features=64, out_features=64, bias=False)
          (NEXT): Linear(in_features=64, out_features=64, bias=False)
          (SUBTOKEN_OF): Linear(in_features=64, out_features=64, bias=False)
          (COMPUTED_FROM): Linear(in_features=64, out_features=64, bias=False)
          (LAST_LEXICAL_USE): Linear(in_features=64, out_features=64, bias=False)
          (NEXT_USE): Linear(in_features=64, out_features=64, bias=False)
          (RETURNS_TO): Linear(in_features=64, out_features=64, bias=False)
          (_CHILD): Linear(in_features=64, out_features=64, bias=False)
          (_OCCURRENCE_OF): Linear(in_features=64, out_features=64, bias=False)
          (_NEXT): Linear(in_features=64, out_features=64, bias=False)
          (_SUBTOKEN_OF): Linear(in_features=64, out_features=64, bias=False)
          (_COMPUTED_FROM): Linear(in_features=64, out_features=64, bias=False)
          (_LAST_LEXICAL_USE): Linear(in_features=64, out_features=64, bias=False)
          (_NEXT_USE): Linear(in_features=64, out_features=64, bias=False)
          (_RETURNS_TO): Linear(in_features=64, out_features=64, bias=False)
        )
        (rnn_cell): GRUCell(64, 64)
      )
    )
  )
  (decoder): DenseDecoder(
    (cls_layers): Sequential(
      (0): Linear(in_features=64, out_features=64, bias=False)
      (1): Dropout(p=0.1, inplace=False)
      (2): Linear(in_features=64, out_features=99, bias=True)
    )
  )
) (train_enhanced.py:568, single_main())[0m
[32m[2025-11-21 06:31:42]    INFO >> æ¨¡åž‹: typilus, æŸå¤±å‡½æ•°: TypilusCriterion (train_enhanced.py:569, single_main())[0m
[32m[2025-11-21 06:31:42]    INFO >> æ¨¡åž‹å‚æ•°: 745059 (å¯è®­ç»ƒ: 745059) (train_enhanced.py:570, single_main())[0m
[32m[2025-11-21 06:31:42]    INFO >> ***********************CUDA enviroments for all 1 workers*********************** (utils.py:530, pretty_print_cuda_env_list())[0m
…
